results/model.pth (torch_old, 92136 bytes, 8 tensors)

conv1.weight f4 [10, 1, 5, 5]
000000 90 1e 4a be 12 9c e5 3d c3 f9 db 3e 97 11 6b 3e
       -0.19738221 0.11211409 0.4296399 0.22955929
000010 eb c3 06 be 53 d2 ee bc f4 2e 28 3e 57 87 1b 3e
       -0.13160674 -0.029153025 0.16424161 0.15188347
000020 42 79 4e 3b a3 28 d0 be 42 86 24 bd cd 5c 24 3e
       0.003150538 -0.40656003 -0.0401671 0.16051026
000030 d4 2a b1 3e 08 bb 20 3e 2b 86 b0 be 7e 82 f4 bd
       0.34602988 0.15696347 -0.34477362 -0.11938952
000040 e1 9b a0 3e 05 ba 4a 3e 5b 2a a6 bb a4 ed d1 be
       0.31368926 0.19797523 -0.005070967 -0.41001618
000050 c5 cc 7d 3e 01 34 82 3e 8c 6e 7e 3e d8 e2 40 bd
       0.24785145 0.254303 0.24846858 -0.047091335
000060 b6 8a dc be 0c db 2f 3e 05 41 71 3b 31 09 11 3c
       -0.43074578 0.17173404 0.0036812436 0.008852289
000070 a8 ee 26 be 81 57 c4 bd ea ac 25 be e2 da 58 bc
       -0.16301978 -0.095870025 -0.16179243 -0.0132357795
000080 77 0e d0 3d 21 5c 9b be 5a fd 95 be 6b 2e fb bd
       0.10159009 -0.30343726 -0.29294854 -0.12264713
000090 ad cf 19 3e 3c b5 31 3e 84 ad a2 be 98 28 09 be
       0.15020628 0.17354292 -0.31773007 -0.13394392
0000a0 50 a9 45 bc 8b ee 3f 3e 2c c9 81 3e f3 34 69 be
       -0.012064293 0.1874334 0.25348794 -0.22774105
0000b0 c8 ed a8 bd 27 f8 86 bb 54 65 81 3e ce 48 4e 3e
       -0.08248478 -0.0041189375 0.2527262 0.2014496
0000c0 c0 b6 5c 3e fa 80 17 be 24 8a 9c bd cc be a8 3e
       0.21554089 -0.14795294 -0.07643536 0.32958066
0000d0 7c 55 91 3e 61 6f 7e 3e e4 57 ad bd 76 e9 50 be
       0.28385532 0.24847175 -0.084640294 -0.20401558
0000e0 c6 57 21 3e 74 51 c1 3d e2 cf 9e 3e b7 00 94 3e
       0.15756139 0.09439364 0.31017977 0.28906795
0000f0 06 84 21 be 54 24 42 bd 74 7a 2b 3b ad 9a 2d 3e
       -0.15773019 -0.047397926 0.0026165517 0.16953535
000100 08 e1 3a 3e cc 3c 1c bd f3 9d 1e be bb 9a 3b be
       0.18249905 -0.038143918 -0.1548994 -0.18320744
000110 4a 57 12 bd 53 42 9c 3d 8a 3e 96 be dc ef 88 be
       -0.035727777 0.07629838 -0.2934459 -0.26745498
000120 00 ac 4c be af 31 84 be b7 da 3d 3e f3 e5 55 bd
       -0.19987488 -0.25819156 0.18540464 -0.05222125
000130 7c 8a 69 be d9 39 29 be 26 04 c6 bd 4c 52 1b be
       -0.22806734 -0.16525973 -0.0966876 -0.15168113
000140 c7 a8 5f bd 9d de 09 be 66 60 af 3d 20 f7 97 bc
       -0.054604318 -0.13463826 0.085633084 -0.018550456
000150 a3 b8 ad 3d 0d 05 8e bc b9 b4 e4 3c bc 01 71 be
       0.08482482 -0.017336393 0.027918207 -0.23535818
000160 00 7b 5e bd d2 88 61 be 78 05 0b 3e 25 a4 90 bd
       -0.05431652 -0.22024849 0.13576305 -0.07062558
000170 12 1d 84 3c e1 c2 47 be 06 29 4a bd 10 1b fa bd
       0.016127143 -0.19507934 -0.04935553 -0.12212193
000180 a6 c9 e3 bd db 7b 7d be e3 07 8c 3d 01 40 7f bd
       -0.11122446 -0.24754278 0.06837442 -0.0623169
000190 98 9a ec bd bc bb 64 be 9a f6 4c 3e 2c 3a 30 3d
       -0.11552924 -0.2233724 0.20015946 0.043024227
0001a0 47 6e 98 3e 03 52 7a be 95 c6 86 be 14 55 73 bd
       0.29771635 -0.24445347 -0.2632338 -0.05940731
0001b0 5f 93 54 3e 01 64 d9 3e 79 94 e7 bc 0a d8 3b be
       0.20759343 0.4245911 -0.02826904 -0.18344131
0001c0 35 e5 9c bd b1 ca 18 be 48 44 3a 3e f2 5c e6 3d
       -0.07660905 -0.1492107 0.1819011 0.11248197
0001d0 c0 cf 03 3d 99 c5 a5 be 33 7c e2 3d ed 5d 54 3e
       0.032180548 -0.32377318 0.11058845 0.20738955
0001e0 b9 c3 6d be c9 e7 db bd 33 6d 7b be 43 63 5a be
       -0.23219194 -0.10737569 -0.24553375 -0.21326928
0001f0 a4 48 84 3d 39 d6 4e be 5c 7e 52 be da 0c 6c 3d
       0.064591676 -0.20198907 -0.20556015 0.057629444
000200 47 dd 15 bc f1 a5 59 be 17 37 bb 3c 76 fd ab 3e
       -0.009146995 -0.21254708 0.022853417 0.33591813
000210 9e e7 d2 3e c6 31 c6 3e 06 97 76 3d 5a ef 2e 3e
       0.41192335 0.3870985 0.06020262 0.17083493
000220 69 2f bd 3e 70 54 cb 3e f3 8c 29 3e 06 8f 87 3e
       0.36950234 0.39712858 0.16557674 0.26476306
000230 d1 09 41 3e 04 a4 ed 3d 21 0a 9d bd 74 49 56 3e
       0.18851401 0.11603549 -0.076679476 0.20926458
000240 8b 5e a1 3d f3 96 d7 bc 04 c4 88 be e8 8e bc be
       0.07879361 -0.026317095 -0.26712048 -0.3682778
000250 b4 78 d4 bd 5a 53 47 3d 8e 36 9f 3e 0c f3 c5 3d
       -0.10374585 0.048663475 0.3109631 0.09665498
000260 32 72 89 be ad 30 b0 bd 4c 12 8a be a3 fb ae 3e
       -0.26844937 -0.08603034 -0.26967084 0.3417636
000270 7e 9d cc bc ef 9f 8a be 6c 4e b0 bd de 4f 94 be
       -0.024977442 -0.27075145 -0.08608708 -0.28967184
000280 d8 c6 57 3e 58 8b b8 3e d8 0a 4e 3e 9d 13 33 bd
       0.21071947 0.3604381 0.20121324 -0.043719877
000290 05 f6 ce 3d 7b ad 3c 3e a3 7f 5f 3e 62 5a 72 3d
       0.10105518 0.18425553 0.21826033 0.059168227
0002a0 ad 3d d2 3d 42 f8 02 3e 0d 18 80 bc bc 26 bc 3d
       0.1026567 0.12790015 -0.015636468 0.091870755
0002b0 6f 47 0f be 52 c6 e4 bd e0 42 d6 ba 5d 6d 86 bd
       -0.13992094 -0.11170639 -0.0016346835 -0.06563828
0002c0 c9 5f 3f 3d 65 86 aa be 25 9a da bd 1b 0e 38 3d
       0.046722207 -0.3330566 -0.10673932 0.044935327
0002d0 9d 1f b3 bd 14 b6 38 be 7c 04 90 be b1 8b f7 bb
       -0.08746264 -0.18038207 -0.2812842 -0.0075544943
0002e0 38 55 dd bb 31 a2 1f 3e ed 3e 3f be c6 68 26 3e
       -0.0067545436 0.15589215 -0.18676348 0.16250905
0002f0 6b 37 10 3d 50 a1 b7 bc fb a1 81 3e fb e4 88 3e
       0.0352091 -0.022415787 0.25318894 0.26737198
000300 16 47 5f 3e 42 39 af 3d 6a af 11 be 99 0b ec bc
       0.21804461 0.08555843 -0.14227071 -0.028814124
000310 ef da 4f 3e 3e 9c 23 3e c3 43 c3 3d ee 31 0f bc
       0.2029836 0.1597757 0.09534409 -0.0087399315
000320 fb e6 a3 3a 5c 77 15 be 69 39 a5 be fd c6 98 be
       0.0012504751 -0.14596313 -0.32270363 -0.29839316
000330 bd d2 ca be b2 94 2e 3e 74 4c 09 3c 31 9e 87 be
       -0.39613906 0.1704891 0.008380044 -0.26487878
000340 b9 ba 9f bc 0d 69 b2 be 7b 4e 4f 3e b8 fe 46 3d
       -0.019498216 -0.34845772 0.20244782 0.048582762
000350 1a 3c a0 bd e0 79 73 bd 58 f8 89 bd 36 4a e7 3d
       -0.078239635 -0.0594424 -0.06736821 0.112934515
000360 68 be b4 3e 55 4f ce 3e b8 fe 2f 3d 85 1d 42 3e
       0.35301518 0.402949 0.042967528 0.18956573
000370 9a b9 68 bd 1e 86 8a 3e c3 45 aa 3e 26 79 31 3e
       -0.05681763 0.27055448 0.3325635 0.1733137
000380 6a 48 1b 3e 2b d7 b6 3d b4 e8 95 3e 05 79 ec 3d
       0.15164343 0.08927759 0.292791 0.1154652
000390 82 0c b5 3d 3e 8e 26 3e a8 d2 7f 3e 7b 96 98 3e
       0.08840276 0.16265199 0.24982703 0.29802307
0003a0 bd a7 00 3e 83 f2 0e 3d 56 0f 92 bd 9c cd 27 3e
       0.12563987 0.034899246 -0.07131831 0.16387028
0003b0 20 bc b7 3d e3 82 f1 3b 9a b2 a8 bd 1f 7c 6f be
       0.08971429 0.0073703392 -0.082371905 -0.23387192
0003c0 13 28 06 be 1f e1 d4 bc 24 57 3d be 03 5a 90 be
       -0.13101225 -0.025986252 -0.18490273 -0.28193673
0003d0 b9 9b aa be 7a ca 38 3d ad 10 37 be c6 58 4d be
       -0.33321932 0.04511497 -0.17877455 -0.20053396
0003e0 d2 9f 15 be 8c 54 7f be
       -0.14611748 -0.24934596

conv1.bias f4 [10]
000000 f5 91 2a 3d b6 e1 93 bd a0 20 dd 3d 40 82 81 3e
       0.0416431 -0.07220785 0.10797238 0.25294685
000010 df 61 03 be 70 69 cd 3d bb 3c 90 bd aa e8 4d 3e
       -0.12830304 0.10029876 -0.070428334 0.20108286
000020 c1 81 41 3e 1e 56 ba bd
       0.18897153 -0.09098457

conv2.weight f4 [20, 10, 5, 5]
000000 3b ee 8b 3c 69 f7 e5 bc d1 53 b1 bd 30 ec 5b 3d
       0.01708137 -0.028072076 -0.08658565 0.053692043
000010 57 c0 9b bc 0c 0f 00 3c 16 81 92 3c 9b 42 d6 3c
       -0.019012613 0.007816087 0.017883819 0.026154807
000020 28 9a 5f 3d 90 d2 1c be 89 d2 a8 bd 64 a8 02 bd
       0.054590374 -0.15314698 -0.082432814 -0.03189887
000030 7c 1e de bd b5 57 4c bc 9d 79 12 be b1 34 d8 bd
       -0.10845658 -0.012472083 -0.14304204 -0.10556925
000040 63 01 fe bd 26 d0 2e bd d7 41 94 bd eb ef a7 bc
       -0.12402608 -0.042678975 -0.072391205 -0.020500144
000050 fe 57 2a bd 15 e1 e4 bd 49 fa 8a bd 48 3b 58 bd
       -0.041587822 -0.111757435 -0.06786019 -0.05279091
000060 79 3a c5 bd f9 84 5b 3d 91 ae 4d 3c 0e 4e d5 3c
       -0.096302934 0.05359361 0.012553827 0.026038196
000070 7b 6f c9 bc 4c 85 fe 3c 9a b0 e5 bc 4a 9a 65 bd
       -0.02458929 0.03106942 -0.028038312 -0.056055345
000080 ad 9d 79 bd b8 82 51 bd a6 9c aa 3c 03 23 85 bd
       -0.060941387 -0.051150054 0.020826649 -0.065008186
000090 a5 ab 64 bc 3d 30 6d bd a8 ff b6 bb f7 a4 68 3c
       -0.013956939 -0.05790733 -0.005584676 0.014199487
0000a0 e7 09 78 bd 2a dd 6a bd 9e 80 f5 bc 71 2f b5 3c
       -0.06055632 -0.057339825 -0.029968556 0.022117348
0000b0 4a 35 46 bd e1 12 03 3b 35 a6 53 bc 25 a1 72 bc
       -0.048390664 0.0020000266 -0.012918045 -0.014808928
0000c0 a3 5a e9 bc 2f 84 fb 3c d4 e6 7d 3c f7 4d 80 3d
       -0.028485602 0.030702678 0.015496928 0.062648706
0000d0 97 79 40 bd ad 3d a4 bb 35 fd 20 be c0 aa 79 3c
       -0.046990957 -0.005012235 -0.15721591 0.015238464
0000e0 3d 5a c8 3d 09 7a 07 3d 01 d5 4d bd 43 92 59 bd
       0.097828366 0.033075366 -0.050251964 -0.053118
0000f0 64 6a bb 3c 7e 8c 85 3d fd 9e 0e 3c a1 c6 a5 bc
       0.02287788 0.065209374 0.008704898 -0.020236315
000100 36 d6 0a be 69 76 05 3c 5b 8f 9d bd 75 7c aa 3b
       -0.13558277 0.008145907 -0.076933585 0.0052028247
000110 ae dc 22 bd e6 89 c9 bd ec b0 69 3b c2 91 49 bc
       -0.039761238 -0.09840755 0.0035658432 -0.012302818
000120 51 b2 7c bd 81 cc df bc 87 bb 9b bc e8 76 8c bc
       -0.061693493 -0.027319195 -0.019010318 -0.017146543
000130 0f 41 02 bd 59 4d 71 bc 1e 3f 58 bd 68 2b b6 3d
       -0.031800326 -0.014727914 -0.05279457 0.08894998
000140 26 3a 62 bd 8f f7 86 3c 5c ae f8 bc 04 48 5f 3d
       -0.055231236 0.016475467 -0.030356579 0.05451204
000150 91 fc 84 3c fe 8f ae 3c f6 c4 00 3d e8 b1 3a 3d
       0.016233714 0.021308895 0.031437837 0.04557982
000160 c3 a9 47 3b 12 b1 6a 3c 4e 08 8e bc 4e 58 de 3b
       0.0030466176 0.014324443 -0.017337944 0.006785429
000170 87 b9 23 bd 82 56 8c 3d 7f 58 d7 bb 2f de 89 bc
       -0.039971855 0.068524376 -0.006571829 -0.016829578
000180 f7 48 f3 bc 6f 71 44 bd 3c c0 58 3c 33 26 10 bd
       -0.029697878 -0.04795974 0.013229426 -0.03519268
000190 1b ab 8d bc 2f 27 aa 3c 74 26 05 bd 46 ad 5d 3c
       -0.017293504 0.020770637 -0.032507375 0.013530081
0001a0 8d ec 6d bd f4 77 11 bd a8 f5 81 3c b7 99 77 bd
       -0.05808692 -0.035514787 0.015864208 -0.06044933
0001b0 f4 58 18 bd 57 c1 c0 bd ec 2e 49 bc 43 c4 3e 3b
       -0.037194207 -0.09411877 -0.012279253 0.002910868
0001c0 0d 1a 51 bc 35 1f 90 bd 18 63 b1 bd 3a 82 ca bc
       -0.012762559 -0.07037202 -0.08661479 -0.0247203
0001d0 93 a7 bb bd 61 2c 69 bd 21 57 40 bd 2f 81 48 bd
       -0.091628216 -0.05692709 -0.046958093 -0.048951324
0001e0 c2 4b aa bd 28 e8 c9 bd 05 fe 98 bd 0c 8f a7 bd
       -0.08315231 -0.098587334 -0.074703254 -0.08181581
0001f0 e9 9f 92 3c 5a 17 e3 3d a1 b5 86 3d 7d 42 69 3d
       0.017898517 0.11088438 0.06577612 0.056948174
000200 33 9b 1a 3d 87 38 30 be 61 b9 91 3d f6 16 e3 3d
       0.037745666 -0.17209063 0.07115436 0.11088364
000210 39 b8 85 3d 3f 12 df 3d d8 c8 94 bd 61 9a 12 3c
       0.06529278 0.10892152 -0.072648704 0.00894794
000220 bc 72 c0 bc 50 aa c2 bc ee 2a 8d bd 5e ef b3 bd
       -0.02349221 -0.023762852 -0.06892954 -0.0878589
000230 7c 07 12 bd ec 42 c4 bd f5 fd a7 bd e3 e8 ff bd
       -0.03565167 -0.09583077 -0.08202735 -0.124955915
000240 02 04 cb bd 4d 69 fc bc e6 aa 80 3c 90 3e bc bb
       -0.09912874 -0.03081193 0.01570649 -0.0057447627
000250 2d 89 c8 3c f7 34 08 bd 62 ce bd 3b 7c dc 2b 3c
       0.024479473 -0.033253636 0.005792425 0.010489579
000260 0a 46 d7 3c 01 cd c5 3a 50 ea 90 bd 04 7c 1d 3d
       0.026278514 0.0015091003 -0.070759416 0.03844835
000270 98 d8 aa 3d d4 e4 26 bd ca e0 4b bd 4c c6 a5 3c
       0.08342093 -0.04074557 -0.049774922 0.020236157
000280 81 5a 14 3c 82 7a b5 bd bb c2 b5 bc f7 d0 08 be
       0.009054781 -0.08861257 -0.022187581 -0.13360964
000290 9f 8f 00 be 2c 30 d5 bd 6d 7c 4e 3c e7 a1 9d bd
       -0.12554787 -0.10409579 0.012602908 -0.07696896
0002a0 a4 dd d7 bc 3b 39 fe bb ad 37 b0 bc b6 dd 89 bd
       -0.026350804 -0.0077582872 -0.021510923 -0.06731741
0002b0 c1 a3 0f bd c7 d2 80 3d fb 49 1e 3d c3 ac 22 bc
       -0.035068277 0.062902026 0.038644772 -0.009928885
0002c0 7e bd c9 3d 56 86 bb 3d 71 c3 2c 3d 3a e4 97 bc
       0.09850596 0.09156482 0.042178575 -0.018541444
0002d0 3d 28 21 3d ad c6 02 3d 64 fd 1e 3d 68 72 2f bd
       0.039345015 0.031927753 0.03881587 -0.042833716
0002e0 02 3f 8a 3c 83 df 34 bc d6 99 4f bd 9b 8a a7 bd
       0.016875748 -0.0110396175 -0.05068382 -0.08180734
0002f0 97 43 82 bd 85 2a a3 3b 01 fa c5 bc 35 e9 83 3c
       -0.06360548 0.004979434 -0.024167063 0.016102413
000300 8e c9 0f 3d ff 6b b3 3c 89 2f 4d bd e3 9d fd bc
       0.035104327 0.021902082 -0.05009416 -0.030959075
000310 75 cc 1c 3d 7a ac 69 3d 2b 1d 40 3d 72 16 f5 ba
       0.038280923 0.057049252 0.046902817 -0.0018698706
000320 97 70 a6 bc aa d4 b2 3d 40 83 b4 3d 64 a4 98 3d
       -0.020317359 0.08731969 0.088140965 0.0745323
000330 c7 a2 0a bb 73 23 b0 3d cf cd b0 3d 5e a9 45 3d
       -0.0021154152 0.086005114 0.08633005 0.048257224
000340 2b ea 72 bd 43 a7 bd bd 48 d8 aa 3c c7 67 54 bd
       -0.05930535 -0.09260418 0.020855084 -0.051856782
000350 3b cb 4c bd f8 12 1c be aa a8 9b bd 24 3d ce 3b
       -0.049998503 -0.15241611 -0.076005295 0.0062939096
000360 76 ff 35 3d b6 5b 81 3a 14 57 03 3d 60 65 88 bc
       0.04443308 0.0009869251 0.032065466 -0.016649902
000370 d3 d6 43 3c b9 1a 23 3d 08 e4 b2 3d ae 06 4c 3d
       0.011953074 0.039820407 0.087349 0.049811058
000380 4e da 25 bb 44 1a 2d 3c 50 8d a0 3c d2 e9 94 3a
       -0.0025307122 0.010565344 0.019598633 0.0011361188
000390 52 13 9e 3d f1 96 40 3d 85 7d 88 bc 1c 31 a9 3d
       0.07718529 0.04701895 -0.016661415 0.0826132
0003a0 52 9a 38 3d 4e 2f da bc 48 29 f4 3c 80 6d 64 3d
       0.045069046 -0.026633885 0.02980484 0.05576849
0003b0 04 8b d1 3d f9 65 8f 3d 3e ee 5c 3d 10 1e 4a bd
       0.10231593 0.070018716 0.053938143 -0.049345076
0003c0 31 c7 78 bd c7 71 44 3c 21 33 a6 bd b7 43 85 3c
       -0.06073684 0.011990017 -0.08115221 0.01626764
0003d0 cd bd 04 bd 3c 51 65 bd 37 51 98 bc da f1 86 3c
       -0.03240757 -0.055985674 -0.018593414 0.016472746
0003e0 4d 15 a7 bc f3 f1 40 bd 73 5a b6 3c 63 94 93 3c
       -0.0203959 -0.04710574 0.022259926 0.018015092
0003f0 24 c8 2d 3d 68 d3 01 bd 66 47 04 3c 2c c1 a6 bc
       0.042427197 -0.031695753 0.008073663 -0.020355783

conv2.bias f4 [20]
000000 46 b2 0f 3c c4 34 a2 bd 0c c8 1f bd f3 d8 64 bd
       0.008770531 -0.079202205 -0.03900914 -0.05587096
000010 b1 8a 87 bd 34 29 1a bd ff ca 52 3d a8 2d 1f 3d
       -0.0661825 -0.03763695 0.051463123 0.0388619
000020 1a 85 32 bd 51 45 4c bd 4f e2 70 bd ee 3a b1 bd
       -0.043583967 -0.049870793 -0.058809575 -0.08653818
000030 a6 90 d5 3b e5 55 82 3c 44 1a 9a 3d b1 e5 c3 bb
       0.0065174876 0.015910098 0.07524541 -0.005978309
000040 3a 6e 7b 3d 53 e7 1c bd 83 95 ac bd 57 21 41 bd
       0.061384417 -0.038306545 -0.084269546 -0.047150936

fc1.weight f4 [50, 320]
000000 06 4a 1f bd 65 3f de 3b e6 c5 29 bb a7 29 9f bc
       -0.038888954 0.0067824596 -0.002590531 -0.019429041
000010 97 91 21 3d 3b 2e 95 bd ac fe c5 bd 51 87 8b 3a
       0.039445486 -0.072842084 -0.096677154 0.0010645186
000020 e1 af 4f 3c 26 36 c7 bd f4 c0 e1 3c 68 c9 c1 bc
       0.01267621 -0.09727125 0.027557828 -0.023655608
000030 a6 2c 8a 3d 56 42 a7 bd ba ff 1e 3c 3c da c6 3d
       0.06746797 -0.081669495 0.009704525 0.09709594
000040 fd de e6 bd 56 ac 16 bd 42 50 13 3c 34 2b 0e 3d
       -0.112730004 -0.036785446 0.008991303 0.03470917
000050 e1 22 93 bd d5 21 73 3d 4e dd 46 3d 16 aa 43 bd
       -0.07184387 0.059358437 0.048550896 -0.04776963
000060 54 9e 99 bd 85 66 7a bb a2 07 1a 3d 6e cb c6 bc
       -0.07500902 -0.003820808 0.037604935 -0.024266925
000070 05 0a df bc 97 d4 ca 3a 4d 62 1a 3e 2a b2 54 bd
       -0.027226457 0.0015474734 0.15076561 -0.051927723
000080 53 db 58 3c c6 20 9f 3c 08 6a 37 3b 06 cb f0 3b
       0.013235885 0.019424807 0.0027986784 0.007348421
000090 80 a8 7a bb 1e 46 22 3c 30 23 60 bc 10 42 a6 37
       -0.0038247406 0.009904413 -0.013680264 1.9819505e-05
0000a0 30 d1 07 bd ec ba b2 3b f2 6e 86 3d f8 a4 b4 3c
       -0.03315848 0.0054544117 0.0656413 0.02205132
0000b0 0a 6b 61 bd 60 be 61 bd d6 eb 4f 3d e0 0e 73 bd
       -0.05503372 -0.055113196 0.05076202 -0.059340358
0000c0 19 0f 26 3d c5 8f 8b bd f5 a8 10 bd 2d 47 02 3c
       0.040541742 -0.06814531 -0.03531738 0.00795154
0000d0 05 da b5 3d e1 7e 84 bc a8 66 21 bd c7 41 64 3c
       0.088794746 -0.016173782 -0.03940454 0.013931698
0000e0 d4 86 09 3d d4 92 56 bd 03 c2 46 3c 73 27 02 3d
       0.033575848 -0.05238612 0.012131217 0.031775903
0000f0 d5 66 a7 3d 97 e5 6f bd d0 d0 ac bd a8 a1 98 3d
       0.081739105 -0.058568563 -0.08438265 0.074527085
000100 b9 db 1c bd 37 9e 50 3c 4f 3e fd 3c 02 84 1a 3c
       -0.03829548 0.012733034 0.0309135 0.009430887
000110 85 05 83 bd 8d 81 af 3c a8 5a 89 3d 39 45 67 bd
       -0.06397537 0.02142408 0.067067444 -0.0564625
000120 c9 02 0d bd 95 ca b3 3c a0 be 3d 3d 07 ce da bc
       -0.034426484 0.021947185 0.046324372 -0.02670957
000130 20 37 9e 3c 39 df 3e 3c d2 86 61 3d 04 2a 18 bd
       0.019313395 0.0116499 0.055060215 -0.037149444
000140 ce d8 1d be 87 bd c9 bc 40 c4 25 3e 04 af 2c 3d
       -0.15414736 -0.024626506 0.16188145 0.042159095
000150 c3 9d 6c bd 28 a4 be bc 7b 1c 04 bd e1 c3 82 3d
       -0.05776764 -0.023271635 -0.032253724 0.06385017
000160 c3 41 25 3c bb 67 93 3c 70 04 7a 3d 06 dc 9a bd
       0.01008648 0.017993798 0.06103939 -0.075614974
000170 69 f1 d5 bc 8c d7 ac 3d a7 69 23 3c 8b c8 ca bd
       -0.02611609 0.0843955 0.00997392 -0.09901532
000180 25 6e 89 bd 3a 8f 52 3d 00 ba a5 3d 2e 12 ec 3c
       -0.067104615 0.051406123 0.08092117 0.028817263
000190 f0 98 21 bd e1 ee 94 bd ab 7d 73 3d a3 73 3c bd
       -0.039452493 -0.07272125 0.05944602 -0.046008717
0001a0 7a 91 1a 3d d9 9a 92 bd 31 d4 8b bb 08 45 c8 bc
       0.037736394 -0.07158441 -0.0042672385 -0.02444698
0001b0 9b eb 91 3d 6f d5 f7 bb c4 ec 94 bc ed 28 8a bd
       0.07125016 -0.007563285 -0.018179305 -0.06746087
0001c0 48 76 b5 3d 62 37 71 bd 89 a6 ba bd b9 ad 75 3d
       0.08860451 -0.058890708 -0.09113795 0.059980128
0001d0 20 49 33 3d e0 75 a7 bc 90 90 f6 bb 5c 76 19 bd
       0.04377091 -0.02044195 -0.0075245574 -0.037466392
0001e0 2d 42 10 3d df de 49 bd 72 12 80 3d 70 ff dd 3c
       0.03521936 -0.049284812 0.06253518 0.027099341
0001f0 6c 14 8e bd 9f cb e1 bd dc a5 0f 3c 41 84 6a 3d
       -0.06937489 -0.11025166 0.008767571 0.057255033
000200 83 f5 b0 3d a9 d4 71 bd 9b 02 af bd 3e b7 33 3c
       0.08640578 -0.0590407 -0.08545419 0.010968981
000210 0f 8b 87 3d cf 0f 2e bd 48 84 11 3d 2c 87 b3 3c
       0.0661832 -0.042495545 0.035526544 0.02191504
000220 a4 61 2f 3c 47 cc d6 bc 1d 94 0a bc 3c 63 bd 3b
       0.010704432 -0.026220454 -0.0084581645 0.005779652
000230 ee 77 9a 3b ca 84 83 bc 74 ba 4b bd 4f 81 2c 3d
       0.0047140038 -0.01605453 -0.049738362 0.042115506
000240 b7 11 23 bd 37 f7 27 bb 4b a3 f8 3c ca 60 d5 3d
       -0.039811816 -0.002562953 0.030351302 0.10418852
000250 81 a8 c8 bc 42 35 72 bd d6 ca e2 3c 76 68 a4 bb
       -0.024494411 -0.05913282 0.02768461 -0.0050173355
000260 0e 58 c0 bd 9c fb a6 3d 5b af f6 3c f7 21 89 bd
       -0.09391795 0.081534594 0.030112913 -0.066959314
000270 63 bc df bc ce 69 67 3d 76 d3 b6 3d d0 8d 60 bd
       -0.02731151 0.056497388 0.08927052 -0.054822743
000280 59 3a 42 3b 62 32 3a bc c0 8f 33 3d 95 74 6b 3c
       0.0029636829 -0.011364551 0.043838263 0.014371057
000290 cf 4e 5a 3d b8 b1 fe 3a db f6 d1 3b 67 fc 44 bc
       0.053297814 0.0019431626 0.0064076013 -0.012023068
0002a0 55 2f 18 3c e2 83 21 bc 08 b1 81 3c 8c a6 93 3d
       0.009288629 -0.0098581035 0.015831485 0.07209501
0002b0 d3 e1 cc 3d cc bf eb 3c c0 cb e4 bd 37 8d 7a bd
       0.1000401 0.02877798 -0.11171675 -0.06116983
0002c0 9f dd 9f 3a d7 8d 78 3d 55 89 a6 bc fe b7 97 bc
       0.0012196786 0.060682144 -0.020329157 -0.018520351
0002d0 5b 3c 3a 3d e8 dd cd 3c eb c2 26 bd 78 f1 83 3c
       0.045467716 0.025130227 -0.040713232 0.016106352
0002e0 de 8b 5d bc 03 0e ae bc 52 cc 6f bd 43 c2 cd 3b
       -0.0135221165 -0.021246916 -0.058544464 0.0062792613
0002f0 a0 a2 ad bd 8b 9b 35 bc b2 30 a6 bc bb f5 77 bb
       -0.08478284 -0.011084448 -0.020286892 -0.0037835676
000300 80 d1 ed bd 29 14 2e bd 3f 68 18 3d ee 4a 20 3c
       -0.116122246 -0.042499695 0.03720879 0.00978349
000310 38 7a fd bd 71 fb 86 3c e1 eb 49 3d 98 68 37 bd
       -0.12376827 0.016477318 0.049297217 -0.044777483
000320 a4 bd dd bd d5 8a b8 3d 58 4f 04 3d a0 71 8f bc
       -0.10827187 0.09010855 0.03230223 -0.017510235
000330 79 64 4c bd 75 5c b0 3d 2f 20 a6 3d 99 8b b1 bd
       -0.049900506 0.08611385 0.08111607 -0.08669204
000340 35 af 97 bc 22 19 94 3c 34 10 68 3d 31 06 93 3c
       -0.018516162 0.01807839 0.056656078 0.017947288
000350 4c 66 70 bd 59 89 aa 3d cf a7 1d 3d 11 bc 95 bc
       -0.058691308 0.08326978 0.038490113 -0.018278154
000360 21 46 7d 3b 49 2d fc 3c 90 f4 33 bd d0 44 92 bd
       0.0038646536 0.030783312 -0.043934405 -0.07142031
000370 4b 49 16 3c 3b 60 ba bc ff a7 3d 3d f0 65 0a bd
       0.009172748 -0.022750964 0.04630279 -0.03378862
000380 76 e0 91 3a 8a f7 4c 3b 61 9b a9 bd 06 73 b6 3c
       0.0011129517 0.0031275474 -0.08281589 0.022271644
000390 37 13 c4 3d 26 d8 40 bd 7a 0c 06 be 79 9d 83 3d
       0.095739774 -0.047081135 -0.13090697 0.0642652
0003a0 2a 24 f8 3c e8 bf 83 bc d3 4f 6e bd 53 77 24 3d
       0.030290682 -0.016082719 -0.058181595 0.04015286
0003b0 9e c2 04 bb dd 5f 5e bd 11 45 98 bc dd 80 c4 3d
       -0.0020257602 -0.05429064 -0.01858762 0.09594891
0003c0 f3 48 00 bd b0 6a 73 3c 0b ed d5 bb 52 e4 bb 3c
       -0.03131957 0.014856979 -0.006528502 0.02293602
0003d0 63 62 37 3d d6 d6 21 3d 04 58 83 bd 24 21 a8 3c
       0.044771563 0.039511524 -0.06413272 0.020523615
0003e0 98 e5 85 bd 12 ed 69 3c de 10 86 bd e5 1a 9e 3c
       -0.06537932 0.014277713 -0.06546186 0.019299934
0003f0 84 7b 05 bc 55 9e 0d bd d6 9e 62 3c 68 d4 9c 3d
       -0.008147124 -0.034574825 0.013831815 0.07657701

fc1.bias f4 [50]
000000 6a 5f 3c 3d c4 86 b5 bc 9f 4e 28 bd 29 7a 68 3d
       0.04598943 -0.022158988 -0.041090604 0.056757126
000010 2e 78 72 39 d6 c8 31 3d d0 10 4f 3c 89 11 e9 3c
       0.00023123689 0.043404423 0.012638286 0.028450744
000020 73 c8 9a 3d fd 2d 1b 3c 73 ce c9 3c 1d 2f 81 bc
       0.07557764 0.009471414 0.024634575 -0.015769536
000030 42 c5 01 3d e7 f9 5b 3d 87 0e 41 3d 87 a6 42 3d
       0.03168226 0.053705122 0.047132995 0.047522094
000040 0d b3 07 bd 42 dc fb 3c 84 36 ca 3c 67 1e d0 3c
       -0.03312974 0.030744676 0.024684198 0.025405122
000050 5d 71 e2 bc fc cc da 3c 13 18 1b bc 3d 60 01 3d
       -0.027641946 0.026709072 -0.009466189 0.03158592
000060 0e 21 04 bd df 24 89 3d 18 f5 91 3c d8 36 a3 bc
       -0.032258086 0.06696486 0.017817065 -0.019923612
000070 8e 0e 77 bc 03 e3 7f bc 76 a0 b2 bc 7f 9a c9 3b
       -0.015079154 -0.015618089 -0.02180503 0.0061524506
000080 8e ce 8f 3c 98 7f 43 3d fe 8e 40 3d 9d a9 31 bd
       0.017554548 0.047729105 0.047011368 -0.043374646
000090 08 fb 25 3c 5b 6b 8f 3d 05 3b 56 bc 40 24 4c 3d
       0.010130651 0.07002898 -0.013075595 0.04983926
0000a0 79 e8 14 3c 04 01 55 bd ae 03 46 bd 2f 15 57 bd
       0.009088629 -0.05200292 -0.048343353 -0.052510437
0000b0 79 01 b3 3c c3 4b 85 3b aa fb 54 3c a8 f6 e0 bc
       0.021851288 0.0040678694 0.0129994545 -0.027461365
0000c0 8f 3c 84 3d d8 34 9d 3d
       0.06456863 0.07676095

fc2.weight f4 [27, 50]
000000 34 2c 69 bd d8 d4 0b be 30 2c b1 bd 4b 0b f7 bd
       -0.05692692 -0.13655412 -0.08651006 -0.12062701
000010 a5 8b 8d bd f7 68 d8 bd 0e 26 75 3d 2d b7 b9 bc
       -0.06911401 -0.105668955 0.059850745 -0.022670353
000020 4d da f9 bd 66 76 d6 bd 6b 22 a7 3d f3 d0 1f 3d
       -0.12199841 -0.104718015 0.081608616 0.03901763
000030 aa 3e a0 3d 69 04 b0 3d 49 3c ca bd 31 24 c1 3b
       0.07824452 0.08594591 -0.0987478 0.005894207
000040 82 d7 c1 bd e8 f6 91 3a 7b d0 74 be e6 f0 25 be
       -0.09464933 0.0011136206 -0.23907654 -0.16205177
000050 90 32 41 be 25 7c 92 bd ff 1b 2e be 04 29 4c be
       -0.18866944 -0.07152585 -0.17002867 -0.19937521
000060 08 bf 8d bc 00 c6 88 bd b7 0d bd bc 34 e1 db bd
       -0.017303005 -0.066783905 -0.023077829 -0.107363135
000070 33 ef 4e 3d 1f 30 18 be f9 1b a3 bd 80 2c ee bd
       0.050521087 -0.14862107 -0.0796432 -0.116295815
000080 3b a5 8a bd 65 49 a7 bd 9c e5 0a be 61 23 2c 3d
       -0.067697965 -0.08168296 -0.13564152 0.042025927
000090 16 55 91 bd dd 42 0b be 5d 3c 47 be fc ce 15 be
       -0.07096307 -0.13599725 -0.1945662 -0.1462974
0000a0 e9 76 ac bd c8 70 87 bc 8b 48 99 bc f9 ab db bd
       -0.08421118 -0.01653327 -0.018711349 -0.107261606
0000b0 e5 04 26 be 0e 20 b5 bd f3 63 63 3d 49 14 35 bd
       -0.16212805 -0.088440046 0.05551524 -0.0442088
0000c0 7b 06 fc 3b bb ff a9 bd ad b0 99 3d a7 90 2e 3e
       0.007691202 -0.0830073 0.07504401 0.17047368
0000d0 ea eb 43 bd fc 6f f2 3d 15 4f 8a bd 28 52 31 3e
       -0.047832407 0.118377656 -0.06753365 0.17316496
0000e0 68 68 1d 3d ab 0e e5 bd 24 7e c4 bd 4b 44 9b 3d
       0.038429648 -0.11184438 -0.09594372 0.07581385
0000f0 0a 13 48 bd 9f fa 77 bc 77 b5 c8 3a 11 36 b5 3d
       -0.048846282 -0.015135436 0.001531287 0.08848203
000100 54 7b af 3d cc c1 18 3e d0 03 09 3e 8c 67 37 be
       0.08568445 0.14917678 0.1338036 -0.17910594
000110 74 98 18 3e 5c 92 02 3e ae e0 b3 bd a1 de 19 3e
       0.14901906 0.12751144 -0.087830886 0.15026332
000120 5b 2f 9b bd f8 94 d6 3d 4e 66 11 bd d2 1e a4 bd
       -0.07577392 0.10477632 -0.035497956 -0.08013691
000130 bf ca af 3d c2 f1 e6 3d bd b4 cf 3d 93 3c 09 bd
       0.085835926 0.112765804 0.10141895 -0.033505034
000140 36 0c 0d be e2 00 5c 3b 70 ae 89 3d 42 40 ad 3d
       -0.1377419 0.0033569862 0.067227244 0.08459522
000150 5d 84 12 be ea 2a 14 3e 48 d0 d9 bd 5a 8e a8 3c
       -0.14308305 0.14469495 -0.106354296 0.020575691
000160 5b 4e 02 3b ef 2c f4 bd 02 1a 0e 3c f8 0e 0d 3d
       0.001988313 -0.11922633 0.008673193 0.034438103
000170 62 a8 0a 3e 1b 50 01 3c 6d 59 04 be e9 ea 08 3e
       0.13540795 0.007892634 -0.12924738 0.13370861
000180 1c 6b 72 bc b1 f8 30 3e bb d7 2f 3c 24 6b 09 3e
       -0.014796045 0.17282368 0.0107325865 0.13419777
000190 96 f7 25 3e 21 cc 8c bd 58 f4 21 be 47 f6 8e 3d
       0.16207728 -0.06874872 -0.15815866 0.069805674
0001a0 d5 d8 60 3e 4f 96 14 be 85 81 2c 3e 38 d6 a0 bd
       0.21957715 -0.14510463 0.16846283 -0.07853359
0001b0 c2 87 b0 3d ec 4d 15 bd 73 af 8f bd ab 67 38 3e
       0.08619644 -0.036451265 -0.07015886 0.18008296
0001c0 57 37 cc bc e8 79 52 bc 89 0b f7 3d 29 32 4b bd
       -0.024928732 -0.0128464475 0.12062747 -0.049608383
0001d0 3b 57 b6 bd 4e dc 05 be 68 1c e2 3d 86 6a 1b 3e
       -0.08903357 -0.13072321 0.11040574 0.15177354
0001e0 5a ec 98 bd 74 89 e3 bd 36 12 5b bd 61 a7 1f 3e
       -0.074669555 -0.111102015 -0.053484164 0.15591194
0001f0 49 cf 2b 3e c7 ba 04 bc 5d 74 06 3e f2 d6 08 be
       0.16778292 -0.008101172 0.13130327 -0.13363245
000200 cc 68 01 bd 64 ad 94 bd 0c c0 89 3c 38 69 93 bd
       -0.031594083 -0.07259634 0.016815208 -0.07197803
000210 b8 0c fa 3c a3 b7 f7 3d 26 c7 d4 3d a7 46 0a be
       0.030523643 0.12095573 0.10389547 -0.13503514
000220 db b7 a9 3c 55 ce 28 3e 4a c9 d9 3d 19 d6 26 be
       0.020717552 0.1648496 0.10634096 -0.1629261
000230 e3 45 ce bd 98 94 a8 bd 63 d2 22 be ea 41 85 bd
       -0.100719236 -0.08231467 -0.15900569 -0.06506713
000240 32 cc a8 bd 36 ae 3f 3e c8 b4 42 3b c3 6e 44 3c
       -0.08242072 0.187188 0.0029709805 0.011989298
000250 fe 1d 27 3e bc 5f 19 3c cd cb 32 bb a7 ac 3b be
       0.16320035 0.009361204 -0.002728212 -0.1832758
000260 59 e2 c1 bd 9e 4c 81 bc a1 e4 48 3e a1 f7 11 3e
       -0.094670005 -0.015783604 0.19618465 0.14254619
000270 c6 f6 bd 3c 7f f2 58 3e b4 b9 38 bd ec eb 42 3e
       0.02318896 0.21186255 -0.045098975 0.1903531
000280 8b a9 a7 3d b6 7a 93 bd 79 0f 91 bc a1 c1 3f be
       0.08186635 -0.0720114 -0.017707573 -0.18726207
000290 77 a4 23 3e 4d 96 83 3c e8 0d 37 3c 8e 86 88 bd
       0.15980707 0.01606288 0.011172749 -0.06666289
0002a0 55 eb 4b be f2 80 6e bd 88 5c 15 be 99 f9 4e 3e
       -0.19913991 -0.05822844 -0.14586079 0.20212401
0002b0 af e2 30 bd a5 90 16 be f1 14 fd bd 20 7d 1c 3e
       -0.043184932 -0.14703615 -0.1235751 0.15282106
0002c0 5c 9b 17 3d 89 b5 31 3e ed 57 17 3e 45 81 0c 3d
       0.037013397 0.17354406 0.14779635 0.03430297
0002d0 5b 44 b9 bd 75 26 e6 bd 91 b8 2b be e1 e1 f2 3d
       -0.09046241 -0.11237804 -0.16769625 0.11859489
0002e0 aa bb 4c 3e f9 ff 4d be 30 67 5d 3d 44 ee 45 be
       0.19993463 -0.20117177 0.054053485 -0.19329172
0002f0 00 41 cb 3d 65 49 11 3e cc c5 52 bc bb 76 d3 bd
       0.09924507 0.14188154 -0.012864541 -0.103253804
000300 23 bb df 3d 77 6f 0b be cd 0a 13 be cb 9d e0 bd
       0.10924365 -0.13616739 -0.14359589 -0.109675966
000310 42 4b ac bd f6 10 72 bd 9a 3a 25 be 6d 28 df 3b
       -0.08412792 -0.059098206 -0.16135636 0.006810239
000320 0e df d6 bb 16 e8 36 bd b5 fc d9 bd d4 48 b2 bd
       -0.006557352 -0.04465493 -0.10643903 -0.08705297
000330 a0 c7 65 3d bf 47 09 3e 32 3a ba ba f6 77 90 bc
       0.05609858 0.13406275 -0.0014208017 -0.017635327
000340 be d5 d7 3a 50 54 7b bd 6f e3 60 bd 86 f9 29 3e
       0.0016466898 -0.061359704 -0.054904398 0.16599092
000350 45 8b 5c 3e 21 98 d6 3d 05 ff 06 3d f9 21 04 bd
       0.21537502 0.10478235 0.03295805 -0.03225896
000360 aa 05 8f bd d1 5b 11 be dc bf be 3d 36 0d 43 3d
       -0.06983502 -0.14195181 0.09313938 0.04762002
000370 d5 1e ef 3d b1 b1 e0 3d 58 7e 1d bd 1f b5 19 3e
       0.116758026 0.10971392 -0.03845057 0.15010498
000380 d2 f7 e1 3d c3 44 2a 3e 35 ff 64 bd 46 75 3c bc
       0.11033596 0.16627793 -0.055907447 -0.01150257
000390 ed a4 ca bd 90 f5 e0 3c 44 d5 c9 bd 2c 2d 26 bd
       -0.09894738 0.027460843 -0.0985513 -0.040570423
0003a0 87 b9 ea bd 78 1b 02 3e be da 08 be a8 32 4e 3d
       -0.11461168 0.12705791 -0.13364694 0.05034128
0003b0 4f 9d 5b bc 54 5d d1 3d c8 35 24 3c 44 f5 0f be
       -0.0134042045 0.10222879 0.010022588 -0.14058405
0003c0 a2 34 d2 bd 2b 6b 7d 3d 59 10 9a 3d 56 89 a6 bd
       -0.10263945 0.06186978 0.07522649 -0.081316635
0003d0 8e 62 15 bc 2b e1 1f 3e 85 99 53 3e 68 1c 56 3e
       -0.009117736 0.15613239 0.20664032 0.20909274
0003e0 8d 47 4e 3e 39 78 14 3e 06 0b a6 3d 2e f3 11 be
       0.20144482 0.14498986 0.08107571 -0.14252922
0003f0 44 0c a9 bd 1c d8 22 be 7c bb 0e 3e 83 fa c0 bd
       -0.082542926 -0.15902752 0.13938707 -0.09422781

fc2.bias f4 [27]
000000 82 ec 39 be 00 aa 8c bc 4a 0a 0e 3e 3b 3a dd 3d
       -0.18156627 -0.017170906 0.13871112 0.10802122
000010 81 3c 93 3b de 70 30 3e be 61 cd 3d 02 5a 2f bd
       0.0044932966 0.17230555 0.100284085 -0.042810448
000020 44 50 d6 bc 04 a9 5f 3e f5 34 7e be c0 3f e4 3d
       -0.02616132 0.21841818 -0.24824889 0.11144972
000030 01 c3 89 bd 36 1c 75 3d 65 c7 eb bd 7d ab 06 3e
       -0.06726647 0.059841357 -0.11512641 0.13151355
000040 7f 9f 61 3d b7 15 b8 bd 81 65 e9 bd 1b 12 a5 3c
       0.055083748 -0.08988517 -0.113963135 0.020150235
000050 f4 01 f5 bc d1 e2 18 be 99 27 fc 3d c5 fe 6f 3e
       -0.029908158 -0.14930274 0.1231224 0.2343703
000060 f5 29 45 be 31 f0 0d be 27 40 80 3e
       -0.19254287 -0.13861157 0.25048944
